models/classifier_2.pth (torch, 515855 bytes, 4 tensors)

main.0.weight f4 [64, 2000]
00000000: f0f3 ac3b 3003 9ebc 6342 a2bb b70f 843e
00000010: 889a 90bb e1b9 803e 17ca e7ba 5022 0cbe
00000020: c750 07be 27cf 833e b506 2c3e 6266 0dbe
00000030: 685d 8eb8 fab6 b63c c03a 7e3e 5e40 863a
00000040: 1cd6 913e 0ece 36bc 63a7 c9bb 9b40 453e
00000050: e433 1d3c 3dbe 693e 2434 a4bc 4ecc 37bc
00000060: df33 513e 6d5b 93bd 454a 8f3e cf5b 593e
00000070: 9daa 2e3d cb86 793e 6340 ddbb 044a 5fbc
00000080: cec2 21bc 4223 523e e001 b1bb cfcb 443c
00000090: 6fbb 0b3c d7f0 8a3e acce 8bbc e881 873c
000000a0: 6e7d 783c 4688 3fbe 638c c0bd 6be1 18bc
000000b0: 1013 993e 0342 a9bc 57dc 7f3e e1fd 673e
000000c0: 63b9 393e 6384 36be 6a74 b2bb e751 893e
000000d0: 9b15 263c c459 a43c 1230 af3e 5341 5b3e
000000e0: 314b 1ebe c92c d8bb 1cee a8bc 1013 a4bb
000000f0: 9b80 833e e944 7c3e 177b 613c bc59 9e3c
00000100: 5761 473b 856c 2039 57dd 79be 967e a4bd
00000110: c69b 69bb 4f6f 90bb 3a36 a7bc ba68 da3b
00000120: 81ca 923c c9e8 6f3c f31a b2bb 307b 383c
00000130: a859 1ebc 6da4 223c 36a6 7a3c cd0e 39bc
00000140: f741 e8bd c7fd a2bc 7eed 4e3c 2222 31be
00000150: ea29 9e3e a10c 9c3b 2ecc 41be 4491 d3bd
00000160: 847d 203e 9578 ab3c 0370 80bc dd1a d4bd
00000170: 1901 563c 42a4 763b f67d 613e 26c6 833e
00000180: b631 853e 398c 7b3e 3304 10be ed48 ac3c
00000190: 7218 b838 0632 11bc 662f 853e 2e9b 61bc
000001a0: 41b9 4a3d 3644 583e cc40 c3bb e99c 7e3e
000001b0: a551 4f3c f811 a63e 83f8 253c b315 b93e
000001c0: f422 6c3e 4385 98bd a170 9b3e af10 a43e
000001d0: a25a 993e 6ce2 c93a 09a9 5d3c ee36 863e
000001e0: 8c3c 583b 4c0a 63bb dea5 373c b480 f03b
000001f0: 870d 09bc 13ff a03c c2f0 06bc bf5c a43c
00000200: 0e51 2bbc 5541 8e3e 4184 673e 05f0 793e
00000210: d4de 6e3c 4612 beb8 99d1 92bc e80e 72be
00000220: 7b06 713e d421 95bc 8949 273a efc1 96bd
00000230: 9f12 3a3c 430d 7ebe 3c31 7d3e 6b2b 6f3e
00000240: 58be 91bc a796 e9bb 99ad 6c3e 52a7 ea3b
00000250: 047e 873e af50 7c3c 43a7 9c3e 5600 a63e
00000260: 2b36 1b3b 2d0d 723e fd4d 983c a0e4 75bb
00000270: 3a61 9dbb 49be c8bd f1e4 9b3c 0243 a7bc
00000280: 22ee 6b3e bea4 513c eb31 3f3c ccb2 263e
00000290: 5723 a53e 7453 9e3e efd8 9bbb ecf0 2fbe
000002a0: c2cc 633e 2555 373b 6250 e4bb 086f 8a3e
000002b0: 439a 5a3e a649 afbc d43e 88bc 78de 7c3e
000002c0: b38c 553c 9ffb 1cbc 1102 d73b c89c 753c
000002d0: 8a32 febd d32a 5cbb 2fcc a03e 9f2d 9ebc
000002e0: e205 9fbd deb4 483e a9f9 773e 575a 903e
000002f0: e552 dbbd b703 913e cfe7 993e a2eb 3dba
00000300: 11c7 893c 45e3 803e f403 ad3c ae27 a43c
00000310: 806a 873c 677c 723c 9745 56be b5b4 813e
00000320: c46d 36be 0e2d 393c caae 6b3e d407 713e
00000330: daea b5bd d81a 873e ed2e 063c 8906 833e
00000340: 637e 923e ada1 563e 58ec afbc 3921 903e
00000350: d81d 023c 372f aa3e 672f 9c3a d820 7f3c
00000360: 2288 673e 45b9 b0bb c1a6 a4bc 1032 99bd
00000370: a1f6 36be 10be d2bb ebb6 5b3c f422 7d3b
00000380: acac e5bd 11d2 f23b 16f3 4d3a f2f5 743e
00000390: 3a5d b23b d3eb 773e 48ad 753e fb9f 6b3c
000003a0: f512 9bbc d0f0 733e e45f b5bc 5dd5 853e
000003b0: d6ab 983c 7bf7 4abc 787e 103b eab5 9f3e
000003c0: 7623 9f3b a12c 4639 5510 23be 7cf6 44bb
000003d0: 545b 253c 4269 bf3e be28 ad3e de0e cfbb
000003e0: a6ab 753b f4a6 78bb ca85 3ebe 9dd6 8f3c
000003f0: 3ff4 7c3e a763 9b3a cb0a 4abc 97d7 88bc
0.005278103 -0.01928863 -0.0049517616 0.2579324 -0.004412953 0.25141814 -0.0017684129 -0.13684964
-0.13214408 0.25743982 0.16799434 -0.13808587 -6.788486e-05 0.022304047 0.24827099 0.0010242572
0.28483665 -0.011157526 -0.0061539873 0.19262926 0.009594891 0.22826476 -0.020044394 -0.011218144
0.20429944 -0.071951725 0.2798635 0.21226428 0.04264318 0.24367826 -0.0067520603 -0.013628487
-0.009873105 0.20521262 -0.005401835 0.012011482 0.008528574 0.2713687 -0.017066322 0.016541436
0.0151666235 -0.18704328 -0.09401777 -0.009331088 0.29897356 -0.02066136 0.24986397 0.22655441
0.18137126 -0.17823939 -0.0054460065 0.268203 0.010136987 0.020062335 0.34216362 0.21411638
-0.15458371 -0.0065971357 -0.020621352 -0.0050071552 0.25684056 0.24635662 0.013762257 0.019329898
0.003042301 0.00015299216 -0.2440084 -0.08031957 -0.0035645827 -0.0044078003 -0.0204116 0.0066653164
0.017918827 0.014642903 -0.0054353415 0.011259839 -0.00966493 0.0099268975 0.015298417 -0.011295033
-0.11340707 -0.019896401 0.012629865 -0.17298177 0.30891353 0.0047622477 -0.18925545 -0.103304416
0.1567288 0.020931521 -0.015678411 -0.10356686 0.013061785 0.0037634526 0.22020707 0.25737113
0.2601449 0.2456521 -0.14064102 0.021030867 8.778357e-05 -0.008862024 0.26012725 -0.013769908
0.04949308 0.2111977 -0.005958652 0.24864544 0.012653743 0.32435584 0.010130051 0.36149368
0.23060209 -0.07447293 0.30359367 0.3204398 0.2995196 0.0015402562 0.013529071 0.26213783
0.0032995073 -0.0034643589 0.011208979 0.0073395614 -0.008365042 0.019652879 -0.008236112 0.020063756
-0.010456337 0.2778422 0.22609045 0.24407966 0.014579494 -9.06331e-05 -0.01792221 -0.23638499
0.23537628 -0.018204607 0.0006381502 -0.07361209 0.011356979 -0.24809746 0.24725813 0.23356406
-0.017790958 -0.007128555 0.23113097 0.0071610594 0.2646333 0.015400096 0.3059636 0.3242213
0.002368341 0.23637839 0.018591875 -0.0037520304 -0.00480285 -0.09801919 0.019030066 -0.020417694
0.23040059 0.012795625 0.011669616 0.16279143 0.32253525 0.30923045 -0.004756085 -0.17181748
0.22246078 0.0027974334 -0.00696759 0.27037835 0.21347909 -0.021397423 -0.016631521 0.2469424
0.013034034 -0.0095814755 0.0065615256 0.014990993 -0.12411983 -0.003359486 0.3140578 -0.019308863
-0.07764794 0.19600245 0.24216332 0.28193924 -0.1070917 0.28323147 0.30059668 -0.000724489
0.016818555 0.25173393 0.021120049 0.020038452 0.016530275 0.014800168 -0.20924984 0.2533318
-0.1781531 0.011302246 0.23015895 0.23538142 -0.08882685 0.26387668 0.008189899 0.25590923
0.2861205 0.20960112 -0.021475002 0.28150347 0.007941686 0.33239147 0.0011915982 0.015571795
0.22610524 -0.0053931796 -0.020099046 -0.07480252 -0.17867519 -0.0064313486 0.01341031 0.003862557
-0.11214575 0.007410296 0.0007856352 0.23921946 0.0054432424 0.24211054 0.23991883 0.014381404
-0.018929938 0.23822331 -0.02214045 0.26139346 0.018636625 -0.0123881055 0.0022048037 0.31193477
0.004856522 0.00018899377 -0.15924199 -0.0030054143 0.010092575 0.37384993 0.33820146 -0.006318911
0.0037486344 -0.0037941309 -0.18605724 0.01755839 0.24702547 0.001185526 -0.012331675 -0.016704364

main.0.bias f4 [64]
00000000: 09cb 473e 194e a63e 23f8 a93e a6b1 633e
00000010: 7cd3 9d3e b2b1 dd3d 5b7e 4a3e 034b 473e
00000020: cf37 513e 4edf 4f3e 94ea b43e d66e b23d
00000030: 8e54 443e 58c3 5f3e 1931 903e 8b8a 5b3e
00000040: c846 453e 46a8 a73e f07c 1b3e f95a 6f3e
00000050: e67a 233e 9c3e a33e 44bd 413e 683a 3b3e
00000060: 6156 b03e 0387 aa3e 99e2 363e 1e12 443e
00000070: 1981 373e f83e 9f3e d494 be3e f115 c33e
00000080: ed99 1b3e fb06 a53e b267 9e3e 8f0c bd3e
00000090: 33fa 233e e5d8 9b3e 93a0 a33e 3b74 493e
000000a0: 995d 413e 0813 253e 03eb 3e3e e380 a13e
000000b0: 1b00 463e 0ef7 ae3e 710c b43e 0cdb 7a3e
000000c0: 3f20 b73e 4829 5c3e 5145 b03e a872 b03d
000000d0: 726c 603e 4672 9d3e d0bf 493e 693a ac3e
000000e0: 9eb0 2f3e 5c79 a43e f823 923e 5763 7a3e
000000f0: 3999 ae3e fe4e 9f3e db82 9e3e df4f b33e
0.19511046 0.3248146 0.33197126 0.22235736 0.30825412 0.10824908 0.19774763 0.19462208
0.20431446 0.20300028 0.3533522 0.087125465 0.1917288 0.21851861 0.2816246 0.21439569
0.19265282 0.3274557 0.15184379 0.23374547 0.15964851 0.31883705 0.18919855 0.18283999
0.34440902 0.3330613 0.17859878 0.19147536 0.1792034 0.3110273 0.37222922 0.38102677
0.15195437 0.32231888 0.30938488 0.36923644 0.16013412 0.30438915 0.31958446 0.19673245
0.18883361 0.16120541 0.18644337 0.31543645 0.19335978 0.34172863 0.35165742 0.24497622
0.3576679 0.21500123 0.34427884 0.08615619 0.21916369 0.30751246 0.19702077 0.33638313
0.17157218 0.3212384 0.28543067 0.24451958 0.34101275 0.31114954 0.3095921 0.35021874

main.3.weight f4 [4, 64]
00000000: 0339 c53e 096b a03e 5d2b 963e 41c7 b83e
00000010: 538e 843e 0712 bd3e f056 c43e 1355 a2be
00000020: 22e1 bebe 2ae3 8d3e 3aa1 573e 2983 f63e
00000030: 838b bb3e 60ea a4be dd76 dcbe cbc5 b13e
00000040: 91c5 d03e b93b 7e3e fe6d c53e bc04 c9be
00000050: e36c 95be f22d b9be 6ace b83e 2ff5 c43e
00000060: 0ade efbe f06a d8be 885b 8b3e 5ee4 c6be
00000070: 209a b63e ce37 ae3e cc51 aabe 9430 f5be
00000080: 1f2d af3e b4a2 b73e 14a4 bf3e bec0 d8be
00000090: bafa d9be f4fd c5be 98c0 be3e cbba bfbe
000000a0: dfbe c8be ca4f 93be 3511 c1be 8fb3 a93e
000000b0: e023 d23e 171c b3be 4131 d3be 2a6c afbe
000000c0: d377 b2be 608c 8b3e 4fd3 bfbe 9d96 8d3e
000000d0: beba 7f3e 335f a83d c051 bd3e cc80 cebe
000000e0: 6fb7 c2be f1f6 e6be 9cec b8be de90 c1be
000000f0: 98bb ac3e 0acc c4be ac04 a73e ab5c cdbe
00000100: 4f1a c03e 2ed7 babe bdae a6be 6186 afbe
00000110: 2e5c e1be e70e 6cbe af39 c8be 0258 8e3e
00000120: 1377 bb3e a5e2 c2be c158 c1be 0c67 bf3e
00000130: a67b c73e b2cd b13e e6f0 ce3e 28b6 b43e
00000140: 1547 ce3e f083 cfbe 667e c5be e264 b83e
00000150: 0937 cb3e e5e5 c73e 4616 9e3e eb06 9fbe
00000160: badd bcbe 677e c1be 2d6f c1be ff26 b83e
00000170: 8de9 79be 8a0f b0be bf01 b6be bace 1cbf
00000180: 45d5 7ebe 597c 70be 7d07 8dbe 47c3 dbbe
00000190: 052c d53e 4de1 c03e bae6 a7be 56cb bf3e
000001a0: 90b0 7b3e 8e78 aa3e e118 823e 5575 adbe
000001b0: eeec d1be bc3a a33e c1d5 7e3e b7ef bdbe
000001c0: 66f7 bebe d325 c1be cd01 843e 11f9 8b3e
000001d0: 783c bcbe a7e4 e0be 402d cdbe dede 6b3e
000001e0: f836 aa3e f476 6b3e c522 b7be 50a7 c33e
000001f0: d3c9 f8be 713d c63e c895 c4be 9a56 aebe
00000200: 5f7b 8ebe 3e53 c03e 2a70 ca3e eab1 99be
00000210: 027e da3e c5fb 84be a13d acbe 834c acbe
00000220: b3e0 a7be f571 7abe 65c8 a13e 0ac3 c6be
00000230: 389f afbe 7362 fdbc 80df da3e 66cd 91be
00000240: c456 7ebe d769 d63e 2262 d9be f792 a3be
00000250: d30f 97be c8c4 e63e fcdd cbbe 6c3b 8ebe
00000260: b643 b73e c11e c33e 7121 bbbe 1780 84be
00000270: 1712 60be ad43 d83e 554b ca3e a527 273f
00000280: 2ac5 a1be f58e f43e 6a6c d93e 9b47 b73e
00000290: ad84 a5be afe8 aa3e 344f e53e 643b 9abe
000002a0: 3048 b0be ab96 b9be fffb a0be 567c a13e
000002b0: c72c b0be 3b8a bf3e 0623 b53e 5d38 6f3d
000002c0: c39e be3e 54ef 91be fec9 c13e 955c c8be
000002d0: cc38 bcbe 191b 823e 6b1c 98be e27b 9d3e
000002e0: 6b37 abbe b57a a23e d98f a1bc ecb5 14be
000002f0: 0568 c23e 66f2 d13e f207 b33e 6d93 c63e
00000300: c162 96be 73cf 9dbe 394a abbe 8239 a03e
00000310: ac9f bbbe ad48 c43e 2d41 b8be 6f7c ba3e
00000320: de52 943e 5e32 a93e 742f dfbe 32ee aabe
00000330: a7d0 b2be f9d9 d23e 1cad c7be d1e2 ccbe
00000340: ae0c 8bbe ff47 e2be feec b03e 7052 d1be
00000350: 2e08 b43e 3ce6 81be 7d43 cabe 602c af3e
00000360: 2b45 983e 4ee3 cf3e bab1 7e3e 370a be3e
00000370: d1fc cd3e 6a45 9ebe d661 9e3e 0856 2bbf
00000380: f224 bc3e 6ac7 7cbe 12bd b5be 104e dabe
00000390: a9a3 893e 36a6 b5be a48e cabe 35f4 983e
000003a0: 4f6d b33e b960 bc3e 87cb 713e a2da ccbe
000003b0: 7ccb cebe 1be6 96be 36c0 cfbe b36b e33e
000003c0: 42c3 b33e 94ef af3e 86bc d8be 0fae 973e
000003d0: a159 c53e 5ea1 873e 48ff e4be ce98 303e
000003e0: be0b 2b3e 8de3 e0be 8c83 d73e 6e57 9dbe
000003f0: f6c2 ecbe aabd a6be 70d3 b2be c0a3 ad3e
0.3852006 0.3133166 0.2932996 0.3608952 0.25889835 0.36927816 0.38347578 -0.3170553
-0.37281138 0.27712375 0.21057597 0.48146942 0.36629876 -0.32210064 -0.43059435 0.34721217
0.4077573 0.2482747 0.3856048 -0.39261425 -0.29184636 -0.36167866 0.3609498 0.3846831
-0.4684909 -0.42269087 0.2721827 -0.38846105 0.35664463 0.3402695 -0.3326553 -0.47888625
0.34214112 0.3586632 0.3742987 -0.4233455 -0.42574102 -0.38670313 0.37256312 -0.374472
-0.39208123 -0.28771812 -0.3770844 0.33144805 0.41042995 -0.34982368 -0.41248515 -0.3426221
-0.34857044 0.27255535 -0.37465903 0.2765397 0.2497358 0.08221283 0.36976433 -0.4033264
-0.38030574 -0.45110276 -0.3611802 -0.37805837 0.33736873 -0.3843692 0.32620752 -0.40109763
0.37520072 -0.36492294 -0.3255519 -0.3428221 -0.4401564 -0.2305256 -0.3910651 0.2780152
0.36614284 -0.3806354 -0.37763026 0.37383306 0.38961524 0.34727246 0.40418166 0.35295224
0.40288606 -0.40530348 -0.38572997 0.36014467 0.39690426 0.39042583 0.30876368 -0.31059965
-0.36887914 -0.3779175 -0.37780133 0.35967252 -0.24405499 -0.34386855 -0.35548207 -0.6125294
-0.24886043 -0.23484935 -0.27544776 -0.42922422 0.41635147 0.3767189 -0.32793218 0.3745982
0.24579072 0.332951 0.25409606 -0.3387858 -0.41001076 0.31880748 0.24886228 -0.3709695
-0.37298125 -0.3772417 0.25782624 0.2733846 -0.36764884 -0.43924448 -0.40073586 0.23034236
0.33245063 0.22994596 -0.35768715 0.38213587 -0.4859148 0.3871875 -0.38395524 -0.34050447
-0.278285 0.3756351 0.395387 -0.3001855 0.4267426 -0.25973335 -0.3364077 -0.33652124
-0.3278862 -0.24457534 0.315982 -0.38820678 -0.34301162 -0.030930733 0.42748642 -0.2847702
-0.24837786 0.41877624 -0.42457682 -0.31948063 -0.2950426 0.45072007 -0.39817798 -0.2777971
0.35793847 0.381094 -0.3654895 -0.25878975 -0.218819 0.42239133 0.395106 0.6529487
-0.31595737 0.47765318 0.42465526 0.35796818 -0.32327786 0.33380648 0.4478699 -0.30123436
-0.34430075 -0.36247763 -0.31442258 0.31540173 -0.34409162 0.3741015 0.35378283 0.05840336
0.372305 -0.28502905 0.3784942 -0.39133134 -0.36762083 0.254113 -0.2970918 0.30758578
-0.33440718 0.31734243 -0.019721912 -0.14522523 0.37969986 0.41005248 0.34967 0.38784352
-0.29372218 -0.30822334 -0.33455065 0.31293875 -0.36645257 0.38336697 -0.35987225 0.3642306
0.28969473 0.3304624 -0.4359089 -0.33384854 -0.34924814 0.41181925 -0.3899926 -0.40016797
-0.2715811 -0.44195554 0.3455581 -0.40883207 0.3516249 -0.25370967 -0.39504614 0.34213543
0.2974027 0.40603107 0.24872485 0.37117168 0.40231946 -0.30912334 0.30934018 -0.6692815
0.36746937 -0.24685445 -0.35495812 -0.42637682 0.26882675 -0.3547837 -0.3956195 0.29873815
0.35044333 0.36792544 0.23612796 -0.40010554 -0.4038962 -0.29472432 -0.40576333 0.44418105
0.35109907 0.3436247 -0.42331332 0.29624984 0.38544944 0.264903 -0.44726014 0.1724579
0.16703698 -0.43923607 0.4209255 -0.30730766 -0.46242493 -0.32566577 -0.3492694 0.33913994

main.3.bias f4 [4]
00000000: bae3 6abe 69d4 94bc 09e0 ba3e d709 6fbe
-0.22938433 -0.018167691 0.3649905 -0.23343597
