models/classifier_3.pth (torch, 515855 bytes, 4 tensors)

main.0.weight f4 [64, 2000]
0	0x3bacf3f0	0.005278103
1	0x3e4e31bc	0.2013616
2	0xbba24263	-0.0049517616
3	0xbca85fa1	-0.020553412
4	0x3e5f4859	0.21804942
5	0xbe1da8d8	-0.1539644
6	0x3e64f8ea	0.22360578
7	0xbe392619	-0.1808094
8	0x3b87cb47	0.0041441056
9	0x3e6a1413	0.2285922
10	0x3e44fc6b	0.19236915
11	0x3e828f71	0.25500062
12	0xb88e5d68	-6.788486e-05
13	0x3cb6b6fa	0.022304047
14	0x3e7fa126	0.24963817
15	0x3a86405e	0.0010242572
16	0x3c10a1ca	0.008827636
17	0x3e6798a7	0.22616826
18	0xbbc9a763	-0.0061539873
19	0xbade3175	-0.0016951995
20	0xbd4e864f	-0.050421055
21	0x398927a3	0.00026160208
22	0xbda3fa33	-0.08006706
23	0xbc37cc4e	-0.011218144
24	0xbe13ed27	-0.14445935
25	0xbe184919	-0.14871635
26	0x3e7d3540	0.24727345
27	0xbea046cd	-0.31304017
28	0x3c36f1fd	0.011166093
29	0x3e6df192	0.23236683
30	0x3e75c9cb	0.24002759
31	0xbc5f4a04	-0.013628487
32	0x3e93e973	0.28889045
33	0x3e9469ca	0.2898696
34	0xbe8ae1af	-0.27125308
35	0x3e628a46	0.2212306
36	0x3e5253eb	0.20539825
37	0x3c391baf	0.011298104
38	0x3e463eab	0.19359843
39	0x3c8781e8	0.016541436
40	0x3e77d4bf	0.2420225
41	0x3e5602b6	0.20899472
42	0xbc716ead	-0.01473586
43	0xbc18e16b	-0.009331088
44	0x3e765d3e	0.24059007
45	0x3e4cc9e1	0.19998886
46	0x3e527ba1	0.20554973
47	0xbd86a9b8	-0.0657534
48	0xbc94967e	-0.018138167
49	0x3e6926e4	0.22768742
50	0x3e78026f	0.24219678
51	0x3e81f24d	0.25380173
52	0x3c26159b	0.010136987
53	0x3e78a4ca	0.24281612
54	0xbb33503e	-0.002736106
55	0x3e80e2fe	0.2517318
56	0x3e4c06ca	0.19924465
57	0x3e727b11	0.23679759
58	0xbca8ee1c	-0.020621352
59	0xbba41310	-0.0050071552
60	0x3e3e2f37	0.18572699
61	0x38a6c861	7.95282e-05
62	0x3c617b17	0.013762257
63	0x3c9e59bc	0.019329898
64	0xbd6c4c84	-0.05769016
65	0x39206c85	0.00015299216
66	0xbe2ae93b	-0.16690533
67	0x3e847a2d	0.25874463
68	0xbd6c5e68	-0.05770722
69	0xbe02560f	-0.12728141
70	0xbca7363a	-0.0204116
71	0xbe832b4f	-0.2561898
72	0x3e8dfb3d	0.27730742
73	0xbdfdec14	-0.12398544
74	0xbe69940e	-0.22810385
75	0xbde89419	-0.113563724
76	0xbe1dc08e	-0.15405485
77	0x3c22a46d	0.0099268975
78	0x3e905c78	0.28195548
79	0xbe5dc11d	-0.21655698
80	0x3e82304a	0.25427467
81	0x3e679ace	0.22617647
82	0x3c4eed7e	0.012629865
83	0x3e86696e	0.2625231
84	0x3ca86264	0.020554729
85	0x3b9c0ca1	0.0047622477
86	0x3e856224	0.26051438
87	0x3c28800b	0.010284434
88	0x3caeb039	0.021324264
89	0x3e8f0d4c	0.27939832
90	0xbc807003	-0.015678411
91	0x3cb0ca81	0.021580936
92	0x3e801206	0.2501375
93	0x3e6e5661	0.23275138
94	0x3e8c9b63	0.274623
95	0x3e429d8d	0.19005413
96	0x3e5daed0	0.21648717
97	0xbc7da7d2	-0.015481906
98	0xbdf2b552	-0.1185099
99	0x3cac48ed	0.021030867
100	0xbea275b4	-0.31730425
101	0xbc113206	-0.008862024
102	0x3c8c674c	0.0171391
103	0xbc619b2e	-0.013769908
104	0xbd47fd62	-0.04882563
105	0xbc35741a	-0.011075044
106	0xbbea4748	-0.0071496107
107	0xbdc9d253	-0.09854569
108	0x3c4f51a5	0.012653743
109	0x3c14e3b1	0.009087489
110	0x3c25f883	0.010130051
111	0xbdd9a668	-0.106274426
112	0xbc83707d	-0.01604485
113	0x3c637cda	0.013884747
114	0x3c9cefdf	0.019157348
115	0x3e60c64e	0.21950647
116	0x3e8edf71	0.27904847
117	0x3e920290	0.2851758
118	0x3c5da909	0.013529071
119	0x3b0ddc62	0.002164625
120	0x3e6ef8df	0.23337124
121	0xbb630a4c	-0.0034643589
122	0x3c37a5de	0.011208979
123	0x3e8854f3	0.2662731
124	0xbc090d87	-0.008365042
125	0x3ca0ff13	0.019652879
126	0xbc06f0c2	-0.008236112
127	0x3ca45cbf	0.020063756
128	0xbc2b510e	-0.010456337
129	0xbe330c8c	-0.17485255
130	0xbb101ae0	-0.0021988675
131	0x3e62d869	0.22152866
132	0x3e74f404	0.2392121
133	0xb8be1246	-9.06331e-05
134	0x3e83a9cf	0.2571549
135	0xbc2822a8	-0.010262169
136	0xbbf96baf	-0.007611714
137	0xbc9521d4	-0.018204607
138	0xbd76957e	-0.06020116
139	0xbd746433	-0.05966587
140	0x3e9f1ab6	0.31075066
141	0x3bfbd233	0.00768497
142	0x3c81f114	0.015862025
143	0xbb3122e7	-0.002702886
144	0xbc91be58	-0.017790958
145	0xbd898776	-0.0671529
146	0x3e484dd9	0.19560947
147	0x3e58b2f4	0.21162015
148	0xbdeb491b	-0.11488553
149	0x3c7c50af	0.015400096
150	0xbe1ffc9b	-0.15623705
151	0x3c5fd3f6	0.013661375
152	0xbe3d3c12	-0.18479946
153	0x3e4f89f4	0.20267469
154	0x3c984dfd	0.018591875
155	0x3e900e80	0.28136063
156	0x3e94ebca	0.29086143
157	0x3c66182f	0.014043852
158	0x3e80e346	0.25173396
159	0xbe6bbeb3	-0.23021965
160	0x3b2f30af	0.0026731899
161	0x3c51a4be	0.012795625
162	0xbd460c76	-0.048351727
163	0xbcb4ac4f	-0.02205482
164	0x3e66e7f4	0.2254942
165	0x3e8d47ad	0.27593747
166	0xbe5c357f	-0.21504782
167	0xbd93ac94	-0.07210651
168	0xbe01dfae	-0.12682983
169	0x3b375525	0.0027974334
170	0xbbe45062	-0.00696759
171	0xbe178d02	-0.14799884
172	0x3c5a415f	0.01332125
173	0xbcaf49a6	-0.021397423
174	0x3e40c182	0.18823817
175	0xbd8e3458	-0.069435775
176	0x3e91b52b	0.28458533
177	0x3e794dae	0.24346039
178	0x3bd70211	0.0065615256
179	0x3c759cc8	0.014990993
180	0x3e69d2b6	0.22834286
181	0xbb5c2ad3	-0.003359486
182	0x3ea708df	0.32623956
183	0xbc9e2d9f	-0.019308863
184	0x3e99c488	0.30032754
185	0xbcb1789f	-0.021663962
186	0x3e652cb5	0.22380336
187	0x3e624d90	0.220999
188	0x3cad62d8	0.021165296
189	0x3e72672e	0.23672172
190	0x3e82b3d7	0.25527832
191	0xbe8027ab	-0.25030264
192	0x3b96b5e1	0.0045993184
193	0xbe14a156	-0.1451467
194	0x3e9b2772	0.30303532
195	0x3e8aa127	0.27076074
196	0x3e849760	0.2589674
197	0x3c727c67	0.014800168
198	0xbc151863	-0.0091000525
199	0x3c0b33e4	0.008496258
200	0x3e82978f	0.25506255
201	0xbe653209	-0.22382368
202	0xbe639079	-0.2222308
203	0xbc1ae325	-0.00945357
204	0x393eca2b	0.00018195125
205	0xbe5bad16	-0.21452746
206	0xbe85a000	-0.26098633
207	0xbe97c278	-0.29640555
208	0xbca41d2b	-0.02003344
209	0x3c4ddec3	0.012565318
210	0xbcafec58	-0.021475002
211	0xbb84d9b3	-0.004054272
212	0x3c021dd8	0.007941686
213	0xbe921c9c	-0.28537452
214	0xbe17e6d8	-0.14834154
215	0xbe625183	-0.22101407
216	0x3e88d8d0	0.26727915
217	0xbdd65f44	-0.10467389
218	0xbdb31ac7	-0.08745342
219	0xbe06fe1c	-0.13182873
220	0x3caff0cd	0.021477127
221	0xbbd2be10	-0.0064313486
222	0x3c5bb6eb	0.01341031
223	0x3b7d22f4	0.003862557
224	0xbd8d93a8	-0.06912929
225	0x3bf2d211	0.007410296
226	0x3e5b2f50	0.21404767
227	0xbb8513f3	-0.004061216
228	0xbe674d58	-0.22588098
229	0xbdb78baa	-0.08962186
230	0xbe293f95	-0.16528161
231	0x3c6b9ffb	0.014381404
232	0xbc9b12f5	-0.018929938
233	0xbc09f6d4	-0.008420665
234	0xbcb55fe4	-0.02214045
235	0xbe098042	-0.13427833
236	0x3c98abd6	0.018636625
237	0x3e822f8a	0.25426894
238	0x3e85cc38	0.2613237
239	0xbc31c5fa	-0.010850424
240	0x3e67537d	0.22590442
241	0x39462ca1	0.00018899377
242	0x3e79eb16	0.24406084
243	0xbd4b6717	-0.04965886
244	0x3e7abf7a	0.24487105
245	0x3b1a2c9d	0.0023525127
246	0x3c50ef9c	0.01275244
247	0xbbcf0ede	-0.006318911
248	0x3e6632f3	0.22480373
249	0xbb78a6f4	-0.0037941309
250	0x3c8fdb13	0.017560517
251	0x3e8ffd8d	0.2812313
252	0xbd79d6af	-0.060995754
253	0x3a9b63a7	0.001185526
254	0xbc4a0acb	-0.012331675
255	0x3e6f14f8	0.23347843

main.0.bias f4 [64]
0	0x3ea1964f	0.3155999
1	0x3e277387	0.16352664
2	0x3e268318	0.16260946
3	0x3e33c1f1	0.17554452
4	0x3e34600e	0.17614767
5	0x3ea6265f	0.3245115
6	0x3e3a4d33	0.18193512
7	0x3ea506e3	0.32231817
8	0x3e9cd38a	0.30630141
9	0x3cfc591c	0.03080421
10	0x3e26b307	0.16279231
11	0x3e9135b7	0.28361294
12	0x3eaf389c	0.34222877
13	0x3e57e03b	0.21081631
14	0x3ea8e2c9	0.32985523
15	0x3eb1a035	0.3469254
16	0x3ea784a4	0.32718384
17	0x3e65589e	0.22397086
18	0x3e227974	0.15866643
19	0x3ea950bd	0.3306941
20	0x3e9838c3	0.29730806
21	0x3e3e3b5a	0.18577328
22	0x3e9ea9fd	0.30989066
23	0x3e1d8788	0.15383732
24	0x3e6a2eab	0.22869365
25	0x3e56388d	0.2092001
26	0x3dabc18a	0.08386524
27	0x3e946456	0.289828
28	0x3df7deb8	0.12103027
29	0x3e1ba080	0.15197945
30	0x3e63f7b6	0.22262463
31	0x3e16a16f	0.1471002
32	0x3e3b08e3	0.18265109
33	0x3e2bd8c5	0.1678191
34	0x3e22eefb	0.15911476
35	0x3e8d5e27	0.27610895
36	0x3ebfc952	0.37458283
37	0x3ea9acc6	0.33139628
38	0x3e3869fc	0.1800918
39	0x3e9d7f8a	0.30761367
40	0x3e521b04	0.20518118
41	0x3e953291	0.29140142
42	0x3e9ecbcb	0.31014857
43	0x3e6e7cee	0.23289844
44	0x3e3620ee	0.17785999
45	0x3ebb7f34	0.36620486
46	0x3ebfa641	0.3743153
47	0xbba7c4ee	-0.0051199114
48	0x3e4e2eb7	0.20135008
49	0x3db21778	0.086958826
50	0x3eb517ba	0.35369664
51	0x3e29e2d7	0.16590439
52	0x3e130ee1	0.14361145
53	0x3db50521	0.08838869
54	0x3e5bac4d	0.21452446
55	0x3ebf26ac	0.37334192
56	0x3e944d74	0.28965342
57	0x3ec17068	0.37781072
58	0x3e5f4017	0.21801792
59	0x3e90fa0b	0.28315768
60	0x3e1d4028	0.15356505
61	0x3ead390a	0.3383258
62	0x3e234fdf	0.15948437
63	0x3e681ee2	0.22668031

main.3.weight f4 [4, 64]
0	0x3ebf07dc	0.37310684
1	0x3e9d48ce	0.30719608
2	0x3ea72d0f	0.32651564
3	0x3ec4e2d3	0.38454303
4	0x3e9455bb	0.28971657
5	0x3ec59cec	0.38596284
6	0x3ebab416	0.3646552
7	0xbea89bd7	-0.32931396
8	0xbed142e3	-0.40871343
9	0x3e89729e	0.26845258
10	0x3e80e04e	0.2517113
11	0x3ec3e329	0.38259247
12	0x3ea862ce	0.32887882
13	0xbeaaebe0	-0.33383083
14	0xbee9b56c	-0.45646226
15	0x3e574341	0.21021749
16	0x3eb346cc	0.3501495
17	0x3e86d466	0.26333922
18	0x3ec54d5a	0.38535577
19	0xbedd10ca	-0.43176872
20	0xbe8c1dbd	-0.27366439
21	0xbea2c9ca	-0.31794578
22	0x3ea39f1b	0.31957325
23	0x3ecb3953	0.39692172
24	0xbed62cda	-0.41831094
25	0xbecfdbdc	-0.40597427
26	0x3e9a7319	0.30165938
27	0xbed6738e	-0.41885036
28	0x3ebd3f4a	0.36962348
29	0x3ebb2ad0	0.365561
30	0xbe98bf69	-0.29833534
31	0x3eb6a839	0.3567522
32	0x3ea6f23c	0.32606685
33	0x3ecc5664	0.3990966
34	0x3eb7e2e3	0.35915288
35	0xbed78319	-0.42092207
36	0xbf73ebab	-0.95281476
37	0xbec83c16	-0.39108342
38	0x3eb7b0bc	0.35877025
39	0xbec9ddfa	-0.39427167
40	0xbec8640a	-0.39138824
41	0xbe9d37c3	-0.30706605
42	0xbec6fb5b	-0.38863644
43	0x3ea906c8	0.33012986
44	0x3ec83ab4	0.39107287
45	0xbeb5faa0	-0.35542774
46	0xbed657e3	-0.41863927
47	0xbe7a1587	-0.24422275
48	0xbeafe1d0	-0.3435197
49	0x3e8a59e7	0.27021715
50	0xbec3ca88	-0.38240457
51	0x3e910de5	0.28330913
52	0x3e97d3eb	0.29653868
53	0x3e0ad617	0.13558231
54	0x3eba078e	0.3633389
55	0xbed682ea	-0.41896755
56	0xbed2066c	-0.41020525
57	0xbee3a52d	-0.44461957
58	0xbea1719a	-0.31531984
59	0xbed1e751	-0.40996793
60	0xbebb1428	-0.36538815
61	0xbec7a7d7	-0.3899524
62	0x3eb26f68	0.3485062
63	0xbeb9018d	-0.36133996
64	0x3ecd2fc8	0.40075517
65	0xbea0d1ea	-0.31410152
66	0xbe8b5fc0	-0.2722149
67	0xbe907459	-0.28213766
68	0xbec447d4	-0.3833605
69	0x3ed2497d	0.41071692
70	0xbe444c26	-0.19169673
71	0x3eb1e62e	0.34745926
72	0x3ecde62b	0.40214667
73	0xbebf0a52	-0.3731256
74	0xbe9a2274	-0.3010441
75	0x3ee580db	0.4482487
76	0x3ee209e0	0.4414816
77	0xbe43339d	-0.19062658
78	0x3ee93899	0.45550993
79	0x3ec38be9	0.3819268
80	0x3ee4159c	0.44547737
81	0xbeadc5e9	-0.33940056
82	0xbea620da	-0.3244694
83	0x3ed550b8	0.41663146
84	0x3ee9ef12	0.4569021
85	0xbe1fb6e0	-0.15597105
86	0x3ec7793a	0.38959676
87	0xbe8a4438	-0.27005172
88	0xbea8b17e	-0.32947916
89	0xbea0ca88	-0.3140452
90	0xbec89855	-0.3917872
91	0x3ec309b8	0.38093352
92	0xbe44c3e4	-0.19215351
93	0xbea36508	-0.31913018
94	0xbe9ff124	-0.31238663
95	0xbe66f065	-0.2255264
96	0xbe515bcf	-0.20445178
97	0xbe45b0f2	-0.1930578
98	0xbe3adccb	-0.18248288
99	0xbe858b9e	-0.26083082
100	0x3ec2a736	0.38018197
101	0x3edcab3b	0.43099388
102	0xbe8593de	-0.26089376
103	0x3edbb6e4	0.42912972
104	0xbe3692b8	-0.17829406
105	0x3ed07ac1	0.40718654
106	0x3e9844bb	0.29739937
107	0xbca022eb	-0.0195479
108	0xbe7ecda4	-0.24883133
109	0x3ecea52b	0.40360388
110	0x3e8384a2	0.25687128
111	0xbf0168dd	-0.50550634
112	0xbea1c957	-0.31598923
113	0xbebc0505	-0.3672258
114	0x3e9d3231	0.30702356
115	0xbe7d9bdf	-0.24766491
116	0xbe9fbf54	-0.3120066
117	0xbed8ddb5	-0.4235665
118	0xbe3569ec	-0.17716187
119	0x3eae3644	0.34025776
120	0x3ed5e05a	0.4177273
121	0x3e9213d8	0.28530765
122	0xbe50cc5e	-0.2039046
123	0x3ed4c356	0.4155528
124	0xbec605e4	-0.3867637
125	0x3eeddeb8	0.46458983
126	0xbea2bb74	-0.3178364
127	0xbe90bcf8	-0.28269172
128	0xbe9dc374	-0.3081318
129	0x3eaf96fe	0.34294885
130	0x3ea65e42	0.32493788
131	0xbea9a1f0	-0.3313136
132	0x3ec26fd0	0.3797593
133	0xbea556fb	-0.32292923
134	0xbecf764b	-0.40519938
135	0xbec3c616	-0.38237065
136	0xbebd28c7	-0.36945173
137	0x3df1eae1	0.11812378
138	0x3e756905	0.23965843
139	0xbeaceb63	-0.33773336
140	0xbeaec59f	-0.34135148
141	0x3eb7a758	0.3586986
142	0x3ed68d97	0.419049
143	0x3e623ae8	0.22092783
144	0xbe8c8abc	-0.27449596
145	0x3eb99cb3	0.36252365
146	0xbee0ec6f	-0.43930385
147	0xbecd9224	-0.4015056
148	0xbead5c53	-0.338595
149	0x3ecf74d2	0.40518814
150	0xbee000b7	-0.43750545
151	0xbe930de0	-0.28721523
152	0x3ea084aa	0.31351215
153	0x3eabc3ad	0.33547726
154	0xbec1f727	-0.37883875
155	0xbe943676	-0.289478
156	0x3ec1f470	0.37881804
157	0x3ec048a8	0.37555432
158	0x3eb9ce0c	0.36290014
159	0x3ebcacff	0.36850736
160	0xbeafc06e	-0.343265
161	0x3ed30e14	0.41221678
162	0x3ec64938	0.38727736
163	0x3e9b8c4a	0.3038047
164	0xbef00715	-0.46880403
165	0x3ea9da46	0.33174342
166	0x3ed11457	0.4083583
167	0xbeb25a99	-0.34834746
168	0xbebe5194	-0.37171614
169	0xbecaa4c2	-0.39578825
170	0xbec5de9d	-0.38646403
171	0x3ea677c7	0.32513258
172	0xbec516bf	-0.38493916
173	0x3ea59c4c	0.32345808
174	0x3ea15877	0.31512806
175	0xbe69ec2e	-0.22844002
176	0x3ea6a3c9	0.32546833
177	0x3e97de98	0.29662013
178	0x3ea7f2cf	0.32802436
179	0xbec23379	-0.37929896
180	0xbec72fb7	-0.3890359
181	0x3e10ffa4	0.14160019
182	0xbec69913	-0.3878866
183	0x3e832a0b	0.25618014
184	0xbec6ecb9	-0.3885248
185	0x3e809736	0.25115365
186	0xbe8b14f5	-0.27164426
187	0xbe8613bd	-0.26186934
188	0x3e98c8ae	0.29840606
189	0x3eb1224b	0.34596476
190	0x3e97a9c0	0.29621696
191	0x3ea7deb8	0.32787108
192	0xbeadac27	-0.33920404
193	0xbe9b29a6	-0.30305213
194	0xbea32610	-0.31864977
195	0x3e971ccd	0.2951416
196	0xbebe3bd4	-0.3715502
197	0xbe9962e4	-0.2995826
198	0xbebf02eb	-0.37306914
199	0x3eaf108b	0.3419231
200	0x3e92abf1	0.28646806
201	0x3e9e1c71	0.30881074
202	0xbee282ec	-0.4424051
203	0xbec8afcc	-0.39196622
204	0xbeccf976	-0.40034074
205	0x3ecf8e7a	0.40538388
206	0xbee0cb1b	-0.43904957
207	0xbedab0ad	-0.42712918
208	0xbe8a306d	-0.2699007
209	0xbedacd09	-0.42734554
210	0x3eb8e92d	0.361154
211	0xbee3a85b	-0.44464383
212	0x3eb94bf3	0.36190757
213	0x3ebf2bca	0.37338096
214	0xbed65925	-0.41864887
215	0x3ea77a87	0.32710668
216	0x3e6c2a5c	0.23063034
217	0x3eb5e400	0.35525513
218	0x3e96a21d	0.29420558
219	0x3eac6a64	0.3367492
220	0xbe5e932e	-0.21735832
221	0xbe879f59	-0.2648876
222	0x3e8f9d54	0.2804972
223	0xbef8ec31	-0.486177
224	0x3ec39600	0.38200378
225	0xbe6108a4	-0.21975952
226	0xbeabed1b	-0.33579335
227	0xbed028f7	-0.40656254
228	0x3ed0b67d	0.40764228
229	0xbecd55d5	-0.40104547
230	0xbec28806	-0.37994403
231	0x3e661072	0.22467211
232	0x3ebba55c	0.36649597
233	0x3e95dd9d	0.2927064
234	0x3e689be1	0.22715713
235	0xbed5054b	-0.416056
236	0xbed70810	-0.4199834
237	0xbead4799	-0.33843687
238	0xbedc94a2	-0.43082148
239	0x3f05dc08	0.52288866
240	0x3eb57004	0.35437024
241	0x3e9bd95c	0.3043927
242	0xbee20ed2	-0.44151932
243	0x3ea752a5	0.3268024
244	0x3eb7117a	0.3575552
245	0x3e7b8bfc	0.24565119
246	0xbee83537	-0.453531
247	0xbeca8038	-0.39550948
248	0x3e92a843	0.28643999
249	0xbee99c60	-0.45627117
250	0x3ec0a384	0.37624753
251	0x3e775124	0.24152046
252	0x3e9307ed	0.28716984
253	0xbebc6e70	-0.36803007
254	0xbeb5f47b	-0.35538086
255	0x3ea308d1	0.31842664

main.3.bias f4 [4]
0	0xbe7ffb8d	-0.24998303
1	0x3e9998f1	0.29999498
2	0xbe4cb431	-0.19990613
3	0xbe52b0db	-0.20575278
