models/classifier.pth (torch, 516347 bytes, 4 tensors)

fc1.weight f4 [64, 2000]
0.005278103 -0.01928863 -0.0049517616 -0.020553412 -0.004412953 0.21107602 -0.0017684129 0.19799525
0.0041441056 -0.19643661 0.16849336 0.19461432 -6.788486e-05 0.022304047 0.0046896636 -0.11240829
0.008827636 0.22119519 -0.0061539873 -0.0016951995 0.009594891 0.2210069 -0.020044394 0.23890501
-0.011649246 -0.003430719 0.18987998 -0.08193931 -0.07517484 -0.11142087 0.17067845 -0.013628487
-0.009873105 -0.32439986 -0.005401835 0.012011482 0.008528574 0.011298104 -0.017066322 0.016541436
0.0151666235 -0.019982941 -0.01473586 0.2434791 0.20984304 -0.02066136 0.24325109 0.008886991
-0.018138167 0.20652045 -0.0054460065 0.016716266 0.21132079 0.020062335 -0.002736106 -0.001839939
0.19138998 -0.0065971357 -0.020621352 -0.0050071552 -0.016462069 -0.22145835 0.21840863 0.019329898
0.003042301 0.00015299216 -0.013085168 -0.24412075 -0.0035645827 -0.0044078003 -0.0204116 0.0066653164
0.017918827 0.014642903 -0.0054353415 0.011259839 -0.00966493 0.0099268975 0.015298417 -0.011295033
0.008203448 -0.019896401 -0.18846357 -0.1881223 0.020554729 0.19279553 0.0041401074 0.010284434
0.25477862 0.020931521 -0.2561097 0.18302943 0.24465828 0.0037634526 0.02069713 -0.008083645
0.21568875 -0.015481906 0.18783066 0.26451716 -0.11109851 0.21895283 -0.15698703 -0.013769908
0.012013684 -0.011075044 -0.14938869 -0.020197945 -0.09167282 0.009087489 0.010130051 -0.17914484
-0.01604485 -0.19917102 -0.13957791 0.019876203 0.006876256 -0.14744288 0.24656154 0.21142067
0.0032995073 -0.0034643589 0.011208979 0.0073395614 -0.008365042 0.019652879 -0.008236112 0.020063756
-0.010456337 -0.015483718 -0.0021988675 0.011634465 0.014579494 0.27658907 0.15591396 -0.010262169
-0.007611714 -0.018204607 0.0006381502 -0.17404318 -0.13207309 0.00768497 0.015862025 0.20183514
-0.017790958 0.29562822 -0.084443256 -0.104039356 -0.012227364 0.015400096 -0.15365414 0.013661375
-0.12451287 -0.019554328 0.25489944 0.13364676 -0.00480285 0.014043852 0.019030066 -0.020417694
0.0026731899 -0.1276457 0.011669616 -0.02205482 -0.080290765 0.009309883 -0.004756085 0.18678537
0.2177993 -0.15345563 -0.00696759 0.008654156 -0.06219424 -0.021397423 0.19568853 0.17505486
-0.038249284 -0.0095814755 0.27813128 0.014990993 -0.010503326 -0.003359486 0.021860583 0.18474941
-0.008317104 -0.13792229 0.24383669 -0.070302516 0.021165296 0.20194621 -0.09982947 -0.18692788
-0.17262256 -0.1377219 0.021120049 -0.19318451 0.23835345 0.014800168 -0.0091000525 0.19134937
0.009955276 0.011302246 -0.0022737016 -0.00945357 0.00018195125 -0.092867866 0.008189899 0.0036310228
-0.02003344 0.012565318 -0.16602488 0.22820345 0.2321553 -0.02158732 0.0011915982 0.015571795
-0.20710202 -0.056675717 -0.09749335 -0.0054722945 0.021477127 -0.06647579 0.01341031 0.003862557
-7.9781435e-05 0.007410296 -0.14286205 -0.004061216 0.0054432424 0.0005192617 0.021780513 -0.1332346
-0.14686957 -0.008420665 -0.02214045 0.01058701 0.018636625 0.2173626 0.0022048037 -0.010850424
0.004856522 0.24616893 -0.011948572 -0.0030054143 0.23280855 0.0023525127 0.01275244 0.30153197
0.2624411 -0.0037941309 0.017560517 0.01755839 -0.005831587 0.001185526 -0.012331675 -0.016704364
00000000: f0f3 ac3b 3003 9ebc 6342 a2bb a15f a8bc
00000010: 889a 90bb 5024 583e 17ca e7ba 44bf 4a3e
00000020: 47cb 873b ae26 49be 8689 2c3e fa48 473e
00000030: 685d 8eb8 fab6 b63c c0ab 993b 5136 e6bd
00000040: caa1 103c fe80 623e 63a7 c9bb 7531 deba
00000050: e433 1d3c a24f 623e 2434 a4bc 84a3 743e
00000060: 7bdc 3ebc ead5 60bb e66f 423e cccf a7bd
00000070: 44f5 99bd a030 e4bd 55c6 2e3e 044a 5fbc
00000080: cec2 21bc bd17 a6be e001 b1bb cfcb 443c
00000090: 6fbb 0b3c af1b 393c acce 8bbc e881 873c
000000a0: 6e7d 783c 44b3 a3bc ad6e 71bc 9652 793e
000000b0: 18e1 563e 0342 a9bc d016 793e be9a 113c
000000c0: 7e96 94bc 197a 533e 6a74 b2bb 8df0 883c
000000d0: 7a64 583e c459 a43c 3e50 33bb 1c2a f1ba
000000e0: bcfb 433e c92c d8bb 1cee a8bc 1013 a4bb
000000f0: 76db 86bc fac5 62be 83a6 5f3e bc59 9e3c
00000100: 5761 473b 856c 2039 2c63 56bc cafa 79be
00000110: c69b 69bb 4f6f 90bb 3a36 a7bc ba68 da3b
00000120: 81ca 923c c9e8 6f3c f31a b2bb 307b 383c
00000130: a859 1ebc 6da4 223c 36a6 7a3c cd0e 39bc
00000140: c167 063c c7fd a2bc 98fc 40be 22a3 40be
00000150: 6462 a83c 316c 453e bda9 873b 0b80 283c
00000160: 5872 823e 9578 ab3c d020 83be 116c 3b3e
00000170: b387 7a3e 42a4 763b 078d a93c 4471 04bc
00000180: 83dd 5c3e d2a7 7dbc ae56 403e cb6e 873e
00000190: 9e87 e3bd 2c35 603e 35c1 20be 2e9b 61bc
000001a0: 0bd5 443c 1a74 35bc 59f9 18be 2976 a5bc
000001b0: f6be bbbd b1e3 143c 83f8 253c bf71 37be
000001c0: 7d70 83bc 7df3 4bbe 83ed 0ebe 6bd3 a23c
000001d0: 3752 e13b 44fb 16be a17a 7c3e a97e 583e
000001e0: 8c3c 583b 4c0a 63bb dea5 373c b480 f03b
000001f0: 870d 09bc 13ff a03c c2f0 06bc bf5c a43c
00000200: 0e51 2bbc 6caf 7dbc e01a 10bb 7c9e 3e3c
00000210: d4de 6e3c 159d 8d3e e9a7 1f3e a822 28bc
00000220: af6b f9bb d421 95bc 8949 273a 6038 32be
00000230: 2b3e 07be 33d2 fb3b 14f1 813c dfad 4e3e
00000240: 58be 91bc 955c 973e 96f0 acbd 9612 d5bd
00000250: 4855 48bc af50 7c3c 8357 1dbe f6d3 5f3c
00000260: 9b00 ffbd 6630 a0bc 2e82 823e b2da 083e
00000270: 3a61 9dbb 2f18 663c f1e4 9b3c 0243 a7bc
00000280: af30 2f3b 8eb5 02be eb31 3f3c 4fac b4bc
00000290: 7c6f a4bd 7b88 183c efd8 9bbb aa44 3f3e
000002a0: c806 5f3e 7923 1dbe 6250 e4bb 29ca 0d3c
000002b0: 63bf 7ebd a649 afbc 9362 483e 9541 333e
000002c0: 48ab 1cbd 9ffb 1cbc 3967 8e3e c89c 753c
000002d0: 2416 2cbc d32a 5cbb f714 b33c f32e 3d3e
000002e0: 7644 08bc 803b 0dbe 53b0 793e c4fa 8fbd
000002f0: d862 ad3c fdca 4e3e 6573 ccbd 066a 3fbe
00000300: f8c3 30be f806 0dbe f403 ad3c 29d2 45be
00000310: ed12 743e 677c 723c 6318 15bc 17f1 433e
00000320: 741b 233c 0e2d 393c 6202 15bb 25e3 1abc
00000330: 2bca 3e39 8231 bebd ed2e 063c 74f6 6d3b
00000340: 2b1d a4bc c3de 4d3c 6d02 2abe 2aae 693e
00000350: 1eba 6d3e e4d7 b0bc 672f 9c3a d820 7f3c
00000360: 8d12 54be cc24 68bd 98aa c7bd ef50 b3bb
00000370: cdf0 af3c 7624 88bd ebb6 5b3c f422 7d3b
00000380: 5550 a7b8 11d2 f23b 6e4a 12be f313 85bb
00000390: 3a5d b23b 101f 083a 0c6d b23c a76e 08be
000003a0: fa64 16be d4f6 09bc e45f b5bc 2375 2d3c
000003b0: d6ab 983c 4d94 5e3e 787e 103b fac5 31bc
000003c0: 7623 9f3b b513 7c3e f1c3 43bc 7cf6 44bb
000003d0: 5d65 6e3e 9d2c 1a3b 9cef 503c 6662 9a3e
000003e0: ae5e 863e f4a6 78bb 13db 8f3c 9dd6 8f3c
000003f0: e616 bfbb a763 9b3a cb0a 4abc 97d7 88bc

fc1.bias f4 [64]
0.3144027 0.11518217 0.16049543 0.19629693 0.13870458 0.3036785 0.20326532 0.30463347
0.34138066 0.23230551 0.16590524 0.30623692 0.3217279 0.30941084 0.31548822 0.26021868
0.33469638 0.19695783 0.19798788 0.36489907 0.29884076 0.32176185 0.29888567 0.15686698
0.24645202 0.18411054 0.25484258 0.36046854 0.1452143 0.166618 0.20932479 0.13319105
0.2954232 0.14834498 0.23577712 0.27037594 0.4610791 0.3284279 0.16043843 0.3564256
0.28835037 0.2877187 0.397326 0.17209573 0.18473095 0.3647961 0.23607756 0.26466608
0.21642707 0.1799768 0.28533298 0.2585882 0.10637597 0.11492891 0.18321125 0.53462684
0.34966505 0.32565272 0.14793473 0.33607295 0.2637699 0.33098617 0.1441684 0.25591424
00000000: 64f9 a03e a1e4 eb3d ea58 243e 1002 493e
00000010: 9308 0e3e c07b 9b3e c924 503e ebf8 9b3e
00000020: 72c9 ae3e 7fe1 6d3e 10e3 293e 16cb 9c3e
00000030: 85b9 a43e 196b 9e3e ac87 a13e 623b 853e
00000040: 535d ab3e 50af 493e 56bd 4a3e 0dd4 ba3e
00000050: a801 993e f8bd a43e 8b07 993e bda1 203e
00000060: eb5d 7c3e 7987 3c3e ba7a 823e 558f b83e
00000070: 0fb3 143e e99d 2a3e 3d59 563e 3c63 083e
00000080: b641 973e bfe7 173e 8f6f 713e b76e 8a3e
00000090: 8f12 ec3e b427 a83e f949 243e 6b7d b63e
000000a0: a9a2 933e de4f 933e 506e cb3e dd39 303e
000000b0: 1c2a 3d3e 8ec6 ba3e 51be 713e 5082 873e
000000c0: 0f9f 5d3e d74b 383e 2a17 923e ac65 843e
000000d0: a5db d93d d95f eb3d bb9b 3b3e 4edd 083f
000000e0: 4c07 b33e f4bb a63e 347c 173e c111 ac3e
000000f0: d90c 873e 0577 a93e e2a0 133e 3107 833e

fc2.weight f4 [6, 64]
0.35047925 0.20437108 0.24403484 0.37398878 0.2244233 0.35567188 0.28186607 0.2481544
-0.43330595 -0.4289816 0.19455607 0.2578903 0.31049863 -0.34202072 -0.44888353 0.14920032
0.35444388 0.17436089 0.20117097 -0.47177878 0.39023063 -0.3463782 0.27386817 0.39794838
-0.46622476 -0.45094472 0.17028503 -0.46464482 0.33376327 0.32775623 0.23696233 0.28325453
0.34777567 0.36329687 0.16150895 -0.4071061 -0.6476377 -0.37819782 0.29259214 -0.4347051
-0.46085143 0.2635423 -0.39322823 0.15217045 0.36460352 -0.37898275 -0.4743814 0.115640745
-0.36711064 0.24234883 -0.36664075 0.27442837 0.29421535 0.23667353 0.2974289 -0.87046957
-0.46028835 -0.25941876 -0.435268 -0.40767294 -0.47024155 -0.39472798 0.3012949 -0.41244873
0.453812 -0.36945495 -0.2867657 -0.17239337 -0.41646913 0.45711067 -0.34958497 0.37059003
0.4215138 -0.46262258 -0.35139665 0.3633081 0.4725129 0.5012455 0.48506325 0.36439365
0.47059846 -0.38029435 -0.38756657 0.41722152 0.4878122 0.4214852 0.35774818 -0.24063943
-0.32177073 -0.3417308 -0.41141173 0.4729517 -0.22364104 -0.30944404 -0.27633604 -0.3152
0.42020828 -0.20768526 0.37275985 -0.2374127 0.73871696 0.43975797 -0.30131698 0.44137052
0.3351128 0.38848725 0.3260218 -0.3169459 -0.4033256 0.36399105 -0.36425862 0.37438112
-0.23926875 -0.34935275 -0.24667546 0.3519001 -0.381854 -0.4418709 -0.43694463 0.55435693
0.45979896 0.35035515 -0.22964448 0.45941922 -0.36852303 0.45157468 -0.33250192 -0.2694624
-0.32411203 0.33368048 0.3437404 -0.35420468 0.37337562 -0.32269368 -0.4498333 -0.38859817
-0.42591926 -0.33689827 0.268667 -0.390603 -0.36173192 0.40522945 0.41560164 0.30213755
-0.2723921 0.35782665 -0.5917776 -0.46991342 -0.43192607 0.4160164 -0.45346528 -0.30785963
0.2896867 0.32655025 -0.49862534 -0.3973609 0.39428866 0.37629992 0.3590854 0.2465178
-0.3841704 0.42263615 0.37389848 0.31466305 -0.62570184 0.31895658 0.39211702 -0.4063738
-0.45745787 -0.41181144 -0.41429564 0.28722587 -0.4193465 0.19768515 0.29151344 0.35065532
-0.32484815 -0.40013984 0.32048634 -0.40379608 -0.43868613 -0.4079343 -0.4367097 -0.75062793
-0.502067 0.20851679 -0.33174995 0.31578195 -0.5005288 0.3453339 0.2980098 0.32105422
-0.24646206 -0.2659472 -0.28222853 -0.21173862 -0.30716407 -0.18834732 -0.36838177 -0.19117865
-0.29401898 -0.43069038 -0.37070763 -0.30493322 -0.30970183 -0.17602274 -0.366714 -0.35018474
-0.19684309 -0.37745094 -0.2610335 -0.37323946 -0.18128207 -0.18894626 -0.32893127 -0.18622127
-0.2947838 -0.189682 -0.35331458 -0.2592034 -0.15668863 -0.23060639 -0.2356387 -0.38428703
-0.16953659 -0.15418638 -0.2662041 -0.3232124 -0.41044694 -0.30443463 -0.35318357 -0.2955683
-0.24405806 -0.20986377 -0.33538705 -0.3708441 -0.3501907 -0.29726705 -0.39390248 -0.15920231
-0.24888147 -0.3014151 -0.3859995 -0.21702752 -0.21160021 -0.33156374 -0.3884572 -0.5120151
-0.30321592 -0.3456721 -0.14882378 -0.24313234 -0.41769227 -0.28346884 -0.29149678 -0.28764194
00000000: 0472 b33e a746 513e 45e4 793e 757b bf3e
00000010: 39cf 653e a01a b63e c050 903e 301c 7e3e
00000020: 47da ddbe 7aa3 dbbe b539 473e 330a 843e
00000030: adf9 9e3e 571d afbe 10d4 e5be f8c7 183e
00000040: ab79 b53e a98b 323e c3ff 4d3e fd8c f1be
00000050: 4fcc c73e 7c58 b1be 7338 8c3e e4bf cb3e
00000060: 03b5 eebe 3ae2 e6be 335f 2e3e ede5 edbe
00000070: 05e3 aa3e aacf a73e 41a6 723e bd06 913e
00000080: a70f b23e 0c02 ba3e 9a62 253e 3670 d0be
00000090: 96cb 25bf 25a3 c1be a3ce 953e ab91 debe
000000a0: b8f4 ebbe 04ef 863e 3655 c9be 92d2 1b3e
000000b0: 50ad ba3e 070a c2be 1ee2 f2be 0ed5 ec3d
000000c0: edf5 bbbe 4b2a 783e 56b8 bbbe e081 8c3e
000000d0: 65a3 963e 8c5a 723e 9a48 983e 18d7 5ebf
000000e0: eaaa ebbe 89d2 84be 73db debe 82ba d0be
000000f0: 80c3 f0be c919 cabe 5343 9a3e 7b2c d3be
00000100: 0c5a e83e 3329 bdbe f4d2 92be e387 30be
00000110: 713b d5be 690a ea3e cdfc b2be fabd bd3e
00000120: a8d0 d73e dedc ecbe 43ea b3be 8503 ba3e
00000130: 36ed f13e a051 003f 365a f83e ce91 ba3e
00000140: 48f2 f03e f1b5 c2be 206f c6be 0f9e d53e
00000150: 85c2 f93e e8cc d73e c52a b73e 2f6a 76be
00000160: 22bf a4be 57f7 aebe 8fa4 d2be ba26 f23e
00000170: 2802 65be 736f 9ebe eb7b 8dbe e561 a1be
00000180: 8a25 d73e 72ab 54be 61da be3e 511c 73be
00000190: 8e1c 3d3f f527 e13e 3846 9abe 51fb e13e
000001a0: e893 ab3e cde7 c63e 54ec a63e bc46 a2be
000001b0: b180 cebe 095d ba3e 1b80 babe e2ae bf3e
000001c0: de02 75be 5dde b2be 7e98 7cbe 402c b43e
000001d0: 5e82 c3be e73c e2be 35b7 dfbe 56ea 0d3f
000001e0: c56a eb3e c061 b33e ec27 6bbe ff38 eb3e
000001f0: 0daf bcbe cc34 e73e b13d aabe faf6 89be
00000200: 03f2 a5be 2bd8 aa3e befe af3e 515a b5be
00000210: 172b bf3e 1b38 a5be 8d50 e6be 57f6 c6be
00000220: 1712 dabe ee7d acbe b98e 893e 1efd c7be
00000230: ed34 b9be 3c7a cf3e bdc9 d43e c6b1 9a3e
00000240: fa76 8bbe 0e35 b73e bd7e 17bf 7e98 f0be
00000250: 6a25 ddbe 1a00 d53e 9a2c e8be c79f 9dbe
00000260: d151 943e 9831 a73e d24b ffbe e372 cbbe
00000270: 34e0 c93e 62aa c03e 0bda b73e 2a6f 7c3e
00000280: fcb1 c4be c463 d83e 9f6f bf3e 841b a13e
00000290: ff2d 20bf 474e a33e 90c3 c83e 3a10 d0be
000002a0: eb37 eabe f3d8 d2be 8f1e d4be 450f 933e
000002b0: 96b4 d6be fa6d 4a3e 4041 953e 1889 b33e
000002c0: 7f52 a6be 21df ccbe c916 a43e 5cbe cebe
000002d0: 789b e0be c4dc d0be 6a98 dfbe 2729 40bf
000002e0: 7787 00bf 6d85 553e 21db a9be 2cae a13e
000002f0: a822 00bf 9bcf b03e be94 983e 3861 a43e
00000300: 8d60 7cbe 3b2a 88be 4280 90be 02d2 58be
00000310: 9c44 9dbe 1fde 40be 899c bcbe 56c4 43be
00000320: a889 96be 7383 dcbe 64cd bdbe 3520 9cbe
00000330: 3d91 9ebe 4e3f 34be f0c1 bbbe 6a4b b3be
00000340: 3c91 49be 4041 c1be 2fa6 85be 3e19 bfbe
00000350: 02a2 39be 217b 41be ae69 a8be cab0 3ebe
00000360: e7ed 96be 003c 42be a6e5 b4be 4fb6 84be
00000370: fc72 20be 1524 6cbe 454b 71be 45c1 c4be
00000380: 009b 2dbe 09e3 1dbe e74b 88be 187c a5be
00000390: 1a26 d2be dbde 9bbe 7ad4 b4be ba54 97be
000003a0: 5bea 79be 87e6 56be dab7 abbe 47df bdbe
000003b0: 324c b3be 6333 98be 96ad c9be ee05 23be
000003c0: c9da 7ebe 1453 9abe baa1 c5be 763c 5ebe
000003d0: baad 58be b9c2 a9be dde3 c6be 6c13 03bf
000003e0: 1e3f 9bbe effb b0be 4365 18be aff7 78be
000003f0: c3db d5be d422 91be 113f 95be ce45 93be

fc2.bias f4 [6]
0.06244304 0.38355803 0.19108577 -0.1551605 0.059790455 -0.20496449
00000000: 46c4 7f3d b861 c43e fdab 433e 65e2 1ebe
00000010: d6e6 743d 36e2 51be
